model1.pth (torch, 16554 bytes, 9 tensors)

weight f4 [64, 2]
00000000: 5aef 14bf 4ad0 7cbe 94ee 3bbe dd0c cb3f
00000010: 8fb7 173e 9db7 eabe 985f dabd 9087 05bd
00000020: 008d f73d 2845 113f cda9 c0be 3083 aebd
00000030: 60fb 9e3e 1356 9bbf d310 98be 0c1c 3b3e
00000040: 816d 083f 43a4 56bf da77 c53e a30c 64bf
00000050: 8e79 e8be c0b1 473c 8071 48bd c854 7dbe
00000060: cce9 7bbe c6a9 dc3e ab70 b93e f153 28be
00000070: f804 4ebe f03a bebd 9a58 0d3e 19a3 a7bf
00000080: 7137 283f e456 59bf a4bb 2cbf deef a03e
00000090: 21c0 c73d 52a9 f4be b0e6 dabe 33f9 eebe
000000a0: a20e 24bf 8630 98be dcc6 17bf 513f 0f3f
000000b0: d479 e73e 706c 57be bcdf 16bf 0914 22bf
000000c0: cd07 9c3e b669 33bf 36a5 76be 62d5 95be
000000d0: 5251 09bf 14d9 6dbe 5295 a03e aebe cb3c
000000e0: a311 2bbf 7002 643d ae97 55be 1ef1 993e
000000f0: 6610 da3d 6036 63be 53c3 053f d5de bdbd
00000100: f4f4 963d 91f0 99be 84b0 2d3e b19c d1be
00000110: aa78 33bf 8dfc 01bf 31ee 85be 4e1e c0be
00000120: 153a 9f3e db38 debd 283d 9dbe ec1a d9be
00000130: 74c6 b9be e470 693e c62f c03e 9fcf 113e
00000140: ff68 aebe 0ee2 fd3e 38a4 1dbf 06a8 f33e
00000150: b977 833e 64f2 09bf 9d2b d03e de5c a2bd
00000160: f1a7 bd3e 18a8 2dbf 5c37 353e 93bc 94bf
00000170: 6ddb 9d3e aa00 3dbf d793 193f 5a0c 8ebf
00000180: 714b 183e c9c7 85bf 7efb 6abe 607a c2bd
00000190: 9242 51be 7587 bd3f 4bbf 193f d291 c43c
000001a0: 11b0 673e 816c 86bf 127e f1be 02e2 0cbf
000001b0: ec8b 07bf 8417 99be 5fef 06bf 1c09 92be
000001c0: c34d 3c3f f3c2 c5bd 350f fa3e c252 86bf
000001d0: a73d 0fbf 0be2 cebe c2a8 dabe 6388 05bf
000001e0: c82b e8be 14fc 29bf 2e10 4b3f f894 e6be
000001f0: 798a 2cbf 009a 313d 08fa 3e3f 0681 903e
-0.5817772 -0.24688831 -0.18352729 1.58633 0.14816116 -0.4584321 -0.10662764 -0.032599986
0.120874405 0.5674615 -0.37629548 -0.08521116 0.3105116 -1.2135643 -0.29700336 0.18272418
0.5329209 -0.83844393 0.38568002 -0.8908178 -0.4540524 0.012188375 -0.048936367 -0.24739373
-0.24600905 0.43098277 0.3621877 -0.16438271 -0.20119083 -0.09288585 0.1380333 -1.3096648
0.65709597 -0.8489821 -0.67473817 0.31433004 0.097534426 -0.4778543 -0.42754126 -0.466745
-0.6408483 -0.2972452 -0.5928781 0.5595599 0.45210135 -0.2103746 -0.5893514 -0.6331182
0.30474702 -0.7008318 -0.2408646 -0.2926436 -0.5363971 -0.2322734 0.31363922 0.024871197
-0.66823786 0.055666387 -0.20858642 0.3006677 0.10647659 -0.22188711 0.52251166 -0.092710175
0.0737094 -0.3006635 0.16961867 -0.4093986 -0.70105994 -0.50775987 -0.26158288 -0.3752312
0.31099 -0.10850688 -0.3071072 -0.42403352 -0.3628422 0.2279697 0.37536448 0.14239357
-0.3406448 0.4958653 -0.615787 0.4758913 0.2567728 -0.53885484 0.40658274 -0.07927869
0.37042192 -0.67834616 0.17696899 -1.1620048 0.3083147 -0.7382914 0.5999121 -1.1097519
0.14872529 -1.0451595 -0.22947499 -0.094959974 -0.20435551 1.4806963 0.60057515 0.023995314
0.22625758 -1.0501863 -0.47166497 -0.5503236 -0.5294788 -0.29900753 -0.52709 -0.28522575
0.73556155 -0.09656324 0.48839727 -1.0494006 -0.5595345 -0.40406832 -0.42706877 -0.52161235
-0.45345902 -0.66400266 0.79321563 -0.4503553 -0.6739879 0.043359756 0.7460027 0.28223437

bias f4 [64]
00000000: 7ede 09bf bd55 b43f 84e7 643f e05b eb3d
00000010: 0edd 723d e0f6 fdbd 1ccd 4a3f bbf8 81be
00000020: 3e4e 05bf 9c21 903e e1c9 ccbe 8380 33bf
00000030: b17e 003f b543 ab3e 6846 d8be ea4c 693f
00000040: 253b 4fbe 4e12 2fbf 4645 b4bd 7ec0 dcbe
00000050: a431 2b3e 845f 0e3e daa9 bbbe d1fc 113f
00000060: a214 9e3d 5a29 32bf edc0 a5be 56ed 8e3e
00000070: 3968 1b3f c017 913d 57d3 363f c1c3 293f
00000080: 10d5 a43d 02f1 1f3f 98b3 8dbd beb7 fb3e
00000090: 59c3 8e3e f2e1 2cbf d0f2 32bf 1ed0 373f
000000a0: 6008 68be 70b4 21bd 518b e23d fa22 9abe
000000b0: 88e7 1cbe 2c35 61be 5f10 86be b218 55be
000000c0: 5a04 353d 40a6 8c3c af35 2c3f 80ee 8cbe
000000d0: d5f1 63be 5e64 f4be 80bf a3bd 82cb aebe
000000e0: b9bf c6be d6e6 b63e ec88 6b3e f86c 7b3e
000000f0: 9051 a93d 8441 3bbe c876 aa3d c9cf 043f
-0.5385512 1.4088665 0.89415765 0.11492133 0.059292845 -0.12400603 0.7921922 -0.2538508
-0.52072513 0.28150642 -0.3999777 -0.7011797 0.50193316 0.33450094 -0.42241216 0.91132987
-0.20237406 -0.68387306 -0.08802275 -0.4311561 0.16718155 0.13903624 -0.36653024 0.5702639
0.07718779 -0.6959435 -0.32373753 0.27915448 0.60705906 0.07084608 0.7141623 0.6631432
0.08048451 0.62477124 -0.069190204 0.49163622 0.27883413 -0.67532265 -0.6990175 0.71801937
-0.22659445 -0.03947872 0.11061729 -0.3010481 -0.15322697 -0.2199294 -0.26184365 -0.20810202
0.044193603 0.017169118 0.67269415 -0.2752571 -0.2226022 -0.47732824 -0.0799551 -0.3413964
-0.38818148 0.3572299 0.2300145 0.24553287 0.0826751 -0.18286711 0.08323437 0.51879555

weight f4 [32, 64]
00000000: 00bd dd3b dfb1 86bd af21 07be 9699 f3bd
00000010: 3f1b aa3d b8ad 8fbc 4b74 8fbd d48e 69bd
00000020: 1b63 debd dbda 86bd 8881 91bc 8016 a2ba
00000030: b06a 48bd 8627 4bbd 00c0 13bb 3b10 a1bc
00000040: f542 afbc a0ba 0a3c 8f29 e03d 688d 543d
00000050: 1090 153d 049c 843d 530f 3ebc e025 8ebb
00000060: 5337 03be bc26 b63d 3411 733d d31a a5bc
00000070: 2c7c ef3d 9a5c 9f3d 3391 31bd 07a6 ba3d
00000080: c4db 4a3d 7964 e2bd 98a7 d83d 9846 a43c
00000090: 3ee4 8ebb 10f3 a3bd dc7e 7dbd a525 86bd
000000a0: a864 fe3d f0df c4bd a411 f2bd e62d 603d
000000b0: 8b5a a53d dfea cbbd 802e 843c d863 19bd
000000c0: 7e92 9f3c 045b 8a3d b2ee 92bd d79e 6bbd
000000d0: d7ad cf3d e8bc cd3c ea3e 83bd 8016 05bb
000000e0: d2f6 87bd 69a5 423d 3848 933d 0ebc 883d
000000f0: 76dd 99bd 2e88 c53d fc34 46bd 814c 873d
00000100: 4074 283c 4598 873f 1a1f 703e f847 823d
00000110: 054a 0d3d 68a0 76bd f816 6c3e d05d 593c
00000120: f748 383e 59d8 733e ae34 cb3d 448a 783d
00000130: fe7b aa3d 4317 ea3d 5e2e a2bd c075 133f
00000140: 3848 853d 8028 063c 2ac5 143e 80c3 43bb
00000150: f810 c53d 5e24 b03d 7e37 833d c071 c93d
00000160: 1dcd 783e a0a8 55bd acd0 cfbd 81c0 1a3c
00000170: ecc1 a5bd 707f edbd 6790 223e 7dfe 2dbc
00000180: 880e 6d3e 22fd 483e 98e7 e6bc 30ee 5e3d
00000190: 335f 2f3e fe45 9d3d 3cd2 23bd c320 53bd
000001a0: c0f7 0bbd 92f6 c43d dfd8 523e 12f5 293e
000001b0: dd40 903c bb68 913e 2279 7f3e 05be 283e
000001c0: 7c79 303e 7052 953d 12b6 883f bd0b db3d
000001d0: 7646 973e c8f5 13bd 1cb0 dc3d f80a 5bbd
000001e0: eaee 96bb c4c6 103e b218 d9bd 149e d3bd
000001f0: c89b 1a3d 26d8 333c 68c4 48bd 213d 343e
00000200: 98a4 343d dce0 b73d 143e 0e3d e655 b63d
00000210: 8017 6bbb 000b d63d acb8 1abd cc69 79bd
00000220: 60b4 b33c 4ccd 8d3d 4a55 c0bd 2a2f 9f3d
00000230: b806 d4bc a0cd 78bc 26ce dfbd 04c4 b03d
00000240: 8af3 dcbd 7607 e43d 5ae4 b93d 686e 12bd
00000250: 2ce4 dc3d 0071 363c b25e f83d 2c74 f4bd
00000260: e003 313d 2852 443d f0cf 32bd f0b6 583c
00000270: 847e 6b3d a0fa b2bc 6449 223d 3c2d 6dbd
00000280: 26ba a8bd a8b8 c8bc 1e07 adbd cc0d 0bbd
00000290: 2cd2 59bd f404 8c3d 6cdc 733d 5e83 eabd
000002a0: 8653 ac3d e878 ec3d b0ef 60bc 1e49 c3bd
000002b0: 5828 373d b080 b43d 84a3 63bd 3c18 093d
000002c0: c4e1 4c3d bae9 cf3d a8d9 f3bd 184d 93bc
000002d0: c021 b83b 1e3b abbd 60af 863d 38ce db3c
000002e0: c03b 53bb c4fc 84bd 1cb7 f7bd b6d1 953d
000002f0: 7495 1f3d 204a 9a3d 48e5 28bd bc13 91bd
00000300: fcf5 e53d 0871 10bd ca45 a33d 220d c13d
00000310: b8ed 5abd f85e 463d b0d4 1dbd fee4 f53d
00000320: 10e1 52bd 440d 8cbd 504f adbd bea2 b83d
00000330: 8057 6b3c 3ec0 fcbd c0b6 00bc 42c1 ab3d
00000340: 12f0 c43d e24c a13d a63a e1bd d897 abbd
00000350: 0853 043d a8c8 5c3d ea27 983d 463a 9bbd
00000360: e083 99bc fc7a 5e3d 949e 273d 2422 353d
00000370: e01f eb3d 5413 9d3d fe04 ed3d 42b0 84bd
00000380: 48c3 9f3d 284e 9e3c 30a9 e5bc f05e d43d
00000390: e6cc d4bd 0cfa b6bd 64ee 96bd 7af8 ae3d
000003a0: 96ef dfbd 7ede bb3d bccd 61bd 880e 32bd
000003b0: 403f a0bd de81 a2bd 2c25 593d 0c29 4c3d
000003c0: f8c6 bdbd 62f2 f83d e89f a8bd 60b5 70bc
000003d0: 608a 713c 8073 943c 145a 1d3d 224c d13d
000003e0: 0016 2d3b 3090 e6bc e04b 5c3c a85e cfbd
000003f0: b6bc d43d 5426 32bd 40f7 c2bb 7000 693c
0.0067669153 -0.06576895 -0.13196443 -0.118945286 0.08305978 -0.01753889 -0.07004603 -0.057020977
-0.108587466 -0.06584712 -0.01776196 -0.0012366325 -0.04892987 -0.04959824 -0.002254486 -0.01966106
-0.021394232 0.008467346 0.10945427 0.051892668 0.03651434 0.0647507 -0.011600333 -0.004338011
-0.12814073 0.08894107 0.059342578 -0.020154392 0.11693606 0.07781334 -0.043351363 0.091136985
0.04952599 -0.1105432 0.10578841 0.020053193 -0.0043607047 -0.08005345 -0.06188856 -0.06550149
0.124215424 -0.09613025 -0.11819771 0.054731272 0.0807391 -0.099569075 0.016135454 -0.037448734
0.019479033 0.06755641 -0.07174434 -0.05752453 0.10140579 0.025114492 -0.06408484 -0.00203076
-0.06638874 0.04752103 0.07191509 0.066764936 -0.075129434 0.09645115 -0.048390374 0.06606389
0.010281622 1.0593344 0.23449364 0.06361383 0.03449442 -0.06021157 0.23055637 0.013266996
0.17996584 0.23812999 0.09922157 0.060678735 0.08324431 0.11430218 -0.07919 0.5760155
0.06507915 0.008188367 0.14528337 -0.0029871166 0.09622377 0.086006865 0.06407069 0.09836149
0.24296995 -0.052162766 -0.10147223 0.009445311 -0.08093628 -0.115965724 0.15875398 -0.010619757
0.23150074 0.19627813 -0.028186604 0.054426372 0.1712616 0.076793656 -0.039995417 -0.051544916
-0.03417182 0.09617342 0.20590542 0.16597393 0.017609054 0.28400216 0.24948552 0.16478737
0.17233843 0.07291114 1.0680563 0.10695598 0.29545945 -0.036123067 0.10775778 -0.053477257
-0.0046061175 0.14138323 -0.106004134 -0.103328854 0.03774622 0.010976827 -0.049015433 0.17601444
0.04410228 0.089784354 0.03472717 0.089031026 -0.0035872161 0.10451317 -0.037773773 -0.06089191
0.021936595 0.06923923 -0.093912676 0.07772668 -0.02588211 -0.015185744 -0.109279916 0.08631137
-0.10788639 0.111342356 0.09076758 -0.035749823 0.10785708 0.01113534 0.12127437 -0.119362205
0.043216586 0.047929913 -0.043655336 0.013227209 0.0574937 -0.021848023 0.039620772 -0.057904467
-0.0823863 -0.024502113 -0.08448623 -0.033948705 -0.05317895 0.06836882 0.059536383 -0.114508376
0.08414368 0.115464985 -0.013729021 -0.0953543 0.04471621 0.08813608 -0.055575863 0.033470377
0.050019994 0.10152002 -0.11906749 -0.017981097 0.0056192577 -0.08360885 0.06576419 0.026831731
-0.0032231659 -0.06493524 -0.12095472 0.0731539 0.03896089 0.075336695 -0.041234285 -0.07083842
0.112285584 -0.035264045 0.079722956 0.09426333 -0.053449363 0.048430413 -0.038532913 0.120065674
-0.051484168 -0.06838468 -0.08462393 0.090154156 0.014364123 -0.12341355 -0.007856071 0.083864704
0.09616102 0.07875992 -0.109975144 -0.08378571 0.032305747 0.0539023 0.07429488 -0.07579474
-0.01873964 0.054316506 0.040922716 0.044222012 0.11480689 0.07669702 0.11573218 -0.06478931
0.07800919 0.019324377 -0.028034776 0.103696704 -0.10390644 -0.089344114 -0.07369688 0.08543487
-0.10934369 0.091732964 -0.055127844 -0.04347089 -0.07824564 -0.079349265 0.053013965 0.049843833
-0.09266466 0.12155606 -0.08233625 -0.014691681 0.014742464 0.018121481 0.038415983 0.10219599
0.0026410818 -0.028144926 0.013445824 -0.10125476 0.10387556 -0.043493584 -0.0059498847 0.014221296

bias f4 [32]
00000000: c18f 5cbd 0c24 9b3e 0433 913d 38b9 d93d
00000010: 7d6f 8c3d 28a8 eabd 5896 c03d 02f1 a2bd
00000020: da5a 88bd 7c76 f83d 18cf 643d b238 713e
00000030: 9991 bc3d dcca dbbd 4280 f9bd 6149 8c3e
00000040: 1e5a d6bd 148d 03be dbdf 4d3e 1365 543e
00000050: 6404 373d 5051 7abc 5c3d 013d 9903 e23d
00000060: fb44 5a3f 40f0 473c 30f8 4c3d 74dd b73d
00000070: fd9d 963d 7e03 923e f1ec 0cbd 0812 0a3e
-0.053848032 0.3030094 0.070898086 0.10631031 0.06857202 -0.114578545 0.09403676 -0.07956125
-0.066579536 0.12131974 0.055861562 0.23556784 0.09207458 -0.10732052 -0.12182666 0.27399734
-0.10466407 -0.12846786 0.20104925 0.20741682 0.04468192 -0.0152781755 0.031552657 0.110358424
0.85261506 0.012203276 0.050041378 0.08977786 0.073543526 0.2851829 -0.034405652 0.13483441

weight f4 [16, 32]
00000000: 9509 19be 8c87 a1bd f20c d93d a043 9bbc
00000010: 402d 953b 90a8 913c 4d68 2cbe 22b4 d13d
00000020: 930d 28be 8071 d7bc 5050 0abc 24dc 6a3d
00000030: 6e89 e6bd 1ffa 153e e9f5 0b3e 782d b4bd
00000040: 3ef3 c33d 1802 a5bd 0f9f 1bbe b0ed 1ebe
00000050: 434c 33be 3091 46bc e6f3 a13d 4659 823d
00000060: 3624 14be 9a19 a4bd b532 31be 4042 903c
00000070: 7c87 04bd 9200 e73d a1fb 1a3e f33a 88bd
00000080: ba3f ec3d bb16 aebd c0f2 88bc aecf 58bd
00000090: cb88 28be 56e8 ffbd bef0 0dbe 9794 183e
000000a0: ad27 1e3e 80a2 c8bd b3f3 063e 67d8 25be
000000b0: e268 9d3d f62d f4bd 08d3 81bc b0cb e73c
000000c0: a0a3 c43b 92c4 6cbd e46a 3fbd b296 8abd
000000d0: fd4b 2d3e 6b3e aebd 028d 7fbd d02f 8abd
000000e0: dd66 fabd 2989 273e 11f3 1e3e 928a 853d
000000f0: 0e78 aabd 42b8 f03d fc3b 9bbd 1c12 7d3d
00000100: 6364 1fbe 564e ecbd 87e5 1fbe 7149 d8bd
00000110: b640 25be 40de 08be 10fc ad3d fa5a 84bd
00000120: 2202 c43d 3b7a d63d 181e 2bbe 39fe 8bbc
00000130: 7868 f63d 7616 1e3e 4080 8d3c 4a4b 9d3d
00000140: 3817 31bd 03b5 10be 5336 d8bc 7c2b ce3b
00000150: e0d0 843b e000 27be be0c 1abe 7013 4a3d
00000160: 8988 9ebd 1e30 b13d c6a9 9e3d e079 c53b
00000170: 0928 87bd 53a6 f2bd ac93 f9bd f97b c7bc
00000180: 71e9 c53d 16cb 163d 806f 17be d0d9 413d
00000190: eb7f b8bd c686 883d fb1f f33d 32e3 b2bd
000001a0: 8b46 063e 0242 ebbd 2a8d 90bd b233 fd3d
000001b0: 4d50 813d d448 ce3d a6ff cf3d 6f7e 283d
000001c0: 806f 1cbd 0087 5a3b 5057 343d 5e60 b8bd
000001d0: 78c9 c63c 29f8 9abd 1556 b0bd 405a 09bd
000001e0: e345 943d c0db 8a3d e60d b83d 7ccf 3b3d
000001f0: 79d5 c2bd bb0a 0e3d 406e 813d b8fe f7bd
00000200: c94b 0dbe 5e29 853e fa3f d1bd 9e8b ce3d
00000210: 5436 f53d fec6 d23d 4b69 003e f031 dabc
00000220: 5b9e 1f3e af6d 283e 48aa 843e 0557 593d
00000230: 165f 363c 1026 d6bc 6a38 b03d cdfc 403e
00000240: e0f2 c33c 1029 903c 0e47 e2bc 2985 ef3d
00000250: 1dfc bebd 94ca 583d 31ef d4bd 7a89 c33c
00000260: 6160 233f afee b9bd 4997 29be 76d7 97bd
00000270: 4877 7b3e 2365 8f3e 35af 8a3d ed17 113e
00000280: edf6 b13d 8ced 5d3e 88e6 33bd 2cfb 11be
00000290: 780d f33a 83a2 243e b90b 993e e54e afbd
000002a0: 9653 ae3d 3e34 153d eeb1 8c3e d8ed da3d
000002b0: b5d7 0e3e 7d3d f6bd 6893 f0bc e7cc dd3d
000002c0: 9380 2a3e cd25 163d eb9a 01bc b9df 243b
000002d0: 7940 153e 151d d4bd d5a1 2c3e 8b01 963e
000002e0: e69e 423f 5ead 9e3d ee68 e03d 287c 07be
000002f0: 567a 963e 6007 4e3d d365 f83d 304e 4c3e
00000300: 5544 1b3e 9501 423e 11dc e9bd 7e53 fe3d
00000310: 410f 763e f9c8 193e 630b df3c cf43 283e
00000320: 88ae b83c 9cc8 883b 4d6c 9fbc e99c 3b3e
00000330: 8002 df3d 02d9 88bd 0080 40bb 1660 913e
00000340: b4ad 36bd ef15 68bc 9125 ac3d d413 523e
00000350: 48a5 70bd d838 a43c 4a56 0dbe efe5 a6bc
00000360: d912 1f3f ed23 2dbe 1603 d53d 008c 73ba
00000370: af8f cf3d 1f9a 6a3e d191 97bd 0e40 a33e
00000380: f249 0ebe 3976 173e f076 a8bc f16b 093e
00000390: dd82 533e 001f 913c c145 de3d 83dd 163e
000003a0: 8063 cf3b 67e6 903d d69d 8abc 5d48 0c3d
000003b0: 70c5 983e bd5f 17bd 74a8 763d 0354 513d
000003c0: 1ce3 7a3d 11e8 aa3d 69de 663d 7c2e 7e3e
000003d0: 206f 2ebc 9c6b 4e3d e498 6f3d 8f48 603e
000003e0: b89d 5b3f f6c2 21be 9448 76bd 10d5 5b3d
000003f0: 4734 063e 49a8 673e 05a9 9abb f268 2b3d
-0.14945062 -0.07887182 0.10598172 -0.018953145 0.0045525134 0.017780572 -0.16836663 0.10239436
-0.16411428 -0.026299238 -0.008442 0.05733885 -0.112566814 0.14646195 0.13668026 -0.08797735
0.09567879 -0.0805704 -0.15197395 -0.15520358 -0.1750956 -0.012119576 0.07907848 0.06364684
-0.14466938 -0.080126956 -0.173045 0.017609715 -0.03235577 0.11279406 0.15135051 -0.06651869
0.115355924 -0.08500429 -0.016717315 -0.052932434 -0.16458432 -0.124954864 -0.13861367 0.14900433
0.15444823 -0.097966194 0.13178901 -0.16195832 0.076860204 -0.11922829 -0.015847698 0.028295368
0.006000951 -0.05780465 -0.0467328 -0.06767024 0.16923518 -0.08507999 -0.062390335 -0.06747401
-0.12226651 0.16360916 0.1552241 0.06520571 -0.0832368 0.117538944 -0.075798005 0.06178485
-0.15565638 -0.11538379 -0.15614901 -0.10560883 -0.16137967 -0.13366032 0.08495343 -0.06462665
0.09570719 0.10472532 -0.16710699 -0.017088996 0.120316446 0.15438256 0.017273068 0.07680376
-0.043235034 -0.1413155 -0.026393091 0.006291805 0.00405322 -0.16308928 -0.15043923 0.049334943
-0.07740886 0.08651756 0.077472255 0.0060264915 -0.06599433 -0.1184813 -0.12186369 -0.024351107
0.09663666 0.03681477 -0.14788628 0.047326863 -0.090087734 0.06666331 0.11871334 -0.0873474
0.13112848 -0.11487199 -0.07058175 0.12363376 0.06314144 0.100724846 0.10156183 0.0411362
-0.038192272 0.0033344626 0.04402858 -0.090027556 0.02426599 -0.07566864 -0.08610169 -0.033533335
0.07239892 0.06780195 0.08987026 0.04585217 -0.09513373 0.034678202 0.06319857 -0.121091306
-0.13798441 0.26008123 -0.10217281 0.100852236 0.11973253 0.10291861 0.12540166 -0.02663514
0.15587752 0.16448091 0.25911164 0.053061504 0.011131069 -0.026141196 0.0860451 0.18846436
0.023919523 0.017597705 -0.027621772 0.1169532 -0.093254305 0.05292757 -0.10397185 0.023869265
0.6381894 -0.090787284 -0.16561617 -0.07414143 0.24557221 0.2800685 0.06771699 0.14169283
0.086896755 0.21672648 -0.043921024 -0.1425597 0.0018543443 0.16077618 0.29891756 -0.0855997
0.085120365 0.036426775 0.274795 0.10689896 0.13949473 -0.12023447 -0.029367164 0.10830098
0.1665061 0.036657143 -0.0079104705 0.0025157763 0.14575376 -0.103571095 0.16858609 0.29298052
0.7602371 0.07747911 0.10957514 -0.13230956 0.2939021 0.050300002 0.121287964 0.19951701
0.15162785 0.18945916 -0.114189275 0.124182686 0.24029256 0.15018071 0.02722711 0.16432117
0.02254416 0.004174305 -0.019460822 0.18321575 0.10889149 -0.06682016 -0.002937317 0.2839362
-0.04459925 -0.014165386 0.08405603 0.20515376 -0.058751374 0.020046636 -0.13802448 -0.020373313
0.62138134 -0.16908236 0.10400979 -0.0009290576 0.10134827 0.22910355 -0.07400859 0.31884807
-0.13895395 0.14791192 -0.020564526 0.13420083 0.20655389 0.017714977 0.10853148 0.14732938
0.006329 0.07075196 -0.016920965 0.0342487 0.29838133 -0.036956538 0.060219243 0.05110551
0.061251745 0.083450444 0.05636445 0.2482242 -0.010646611 0.050395593 0.058495417 0.21902679
0.85787535 -0.15797028 -0.06012781 0.05366999 0.1310588 0.2262279 -0.0047198557 0.04184813

bias f4 [16]
00000000: 182d b8bd 3876 383d 3181 9abd 0818 053e
00000010: afe4 613e 94d8 653d 8061 d23d 8819 f23d
00000020: 3a7d b2bd 7fd2 dfbd 30d6 ed3c 3f70 1c3e
00000030: 09ad d73c 914b 003e 4c40 983c fa46 e23c
-0.08992976 0.045034617 -0.075441726 0.12997448 0.22059892 0.056114748 0.10272503 0.11821276
-0.08715291 -0.10928821 0.029032797 0.15277193 0.026327627 0.12528826 0.018585347 0.027621735

weight f4 [8, 16]
00000000: f463 613e ea96 36be e699 1a3b 312b 4abe
00000010: 320e 1e3e 6a66 9f3e 14fa c73e 2f85 803e
00000020: ce9c 363e 5e8c 313e 6600 813e 801a bd3e
00000030: f887 ce3d 0009 e43a d4fe b13e 486a fdbd
00000040: d8f2 f63d 00b2 78ba 4c9d 0a3d 88e1 17be
00000050: 8927 19bd 94b8 303e 9cdf 41be da38 ae3d
00000060: b068 8abc 20e1 273c 5b8d 18be 2fc6 1b3d
00000070: 804e 293e e465 dcbd f0e7 a63c c968 773e
00000080: 20a8 583e cc34 9f3d 29ec 803e 0373 a9bd
00000090: 4d03 6f3e 7cdf af3c 8599 113d 7978 723d
000000a0: 749d 403e 18a2 c43d 939c 5cbc 6df3 ca3d
000000b0: 70aa 58be e026 5fbd 1b73 a63e 0d4c f3bd
000000c0: 3a27 153e 6835 44be a45b 3e3e 4637 26be
000000d0: 609f d73d 306c 70be 2a88 3abe 22bb 28be
000000e0: a002 63bd 101a e63c c8b0 51bd 8065 55bc
000000f0: 7858 0cbd 2cad 99bd e8de 26bd bcff 223e
00000100: f02d 6b3d 544d 40be da4e e53d 8e30 fc3d
00000110: faca 2abe 7e12 7bbe 5138 e83d 277c 6b3e
00000120: 20bf 20bc 9e05 143e 165c 5c3e 7a28 03be
00000130: 9423 e03d d4cd f3bd d002 bfbd 68a4 503e
00000140: ae46 583e 3aca 11be 101c 7dbd d291 5dbe
00000150: 50ed edbc fbc3 583e 85e2 41be 9a51 01be
00000160: 5cb6 41be ec90 b93d bee5 7ebd 811a 34bc
00000170: 9467 e33d dc2a d73d 8f8b 8a3d f8af 583d
00000180: 9c59 033e 38d7 b1bd 5fc9 3bbe 6beb 213e
00000190: 8035 2fbe d281 e03d ce78 2bbe 052f 953d
000001a0: 6095 50bd ccca 1e3e 8a0a 353e 83c5 be3c
000001b0: 8000 fa3d 529e 74be 59ce 10be 6828 103e
000001c0: cab1 033e dc56 2dbe cbea 63be f9ad 00bd
000001d0: 39b6 2c3e 53fb a73e 1b2f 28ba af2a 9b3e
000001e0: 6aaf 42be 5440 c13d ea29 ad3e 56f2 8f3e
000001f0: c9c5 b03b 6c7a 48be 49b4 b43e 948b 67be
0.22010785 -0.17831007 0.0023590266 -0.19743039 0.15435103 0.31132823 0.39057982 0.2510161
0.17833254 0.17338702 0.25195616 0.3693428 0.10084528 0.0017397702 0.3476473 -0.12373787
0.120580375 -0.0009486973 0.033841416 -0.14832127 -0.03739122 0.17257911 -0.18932956 0.08506937
-0.016895622 0.010246545 -0.14897673 0.0380308 0.16533852 -0.107616216 0.020374268 0.24161066
0.21157885 0.07773742 0.25180176 -0.0827389 0.23341103 0.02146887 0.0355468 0.059196923
0.18810064 0.096012294 -0.013465065 0.09909711 -0.21158767 -0.054480433 0.32509694 -0.1187974
0.14565745 -0.19160998 0.18589646 -0.16232023 0.10528445 -0.2347877 -0.18216005 -0.16477636
-0.055422425 0.0280886 -0.051193982 -0.013024688 -0.034264058 -0.07503733 -0.040739924 0.15917867
0.057416856 -0.18779498 0.1119668 0.123139486 -0.16678992 -0.24518773 0.113388665 0.22996579
-0.009811193 0.14455268 0.21519503 -0.1280841 0.10944286 -0.11904493 -0.09326708 0.20375216
0.21120712 -0.142373 -0.06179434 -0.21637657 -0.029043823 0.2116851 -0.18934067 -0.12628785
-0.18917221 0.09060845 -0.062230818 -0.010992647 0.1110374 0.10506222 0.067649 0.052902192
0.12827152 -0.08683628 -0.18338536 0.15812461 -0.17110252 0.10962261 -0.16745302 0.07284359
-0.050923705 0.15507048 0.17679802 0.02328754 0.122071266 -0.2388852 -0.14141215 0.14077914
0.1286079 -0.16927665 -0.22257535 -0.031415913 0.16866387 0.32808933 -0.00064157107 0.30306002
-0.19012228 0.09436098 0.3382104 0.28114575 0.0053946716 -0.1957795 0.35293797 -0.22611839

bias f4 [8]
00000000: eac1 1c3d c4fa 7dbe 1a2a 0a3e 22bb 2d3e
00000010: 3707 43be 5fc4 d83d 4c13 2c3e 6472 c8bb
0.03827087 -0.2480269 0.13492623 0.16965917 -0.19045721 0.1058433 0.16804236 -0.006117152

weight f4 [1, 8]
00000000: 9596 a53e 76d9 90be fde3 f73e 975f ae3e
00000010: 3243 afbd b4a4 cfbc e899 0cbe 24f2 bb3e
0.32341447 -0.2829091 0.4841613 0.34057304 -0.08557738 -0.025347091 -0.13730586 0.36708176
